model.pth (torch, 698103 bytes, 7 tensors)

embedding.weight f4 [90, 100]
0	0x3f40f92d	0.7538021
1	0x3eb7346a	0.35782176
2	0x3e91c935	0.2847382
3	0x3f427757	0.7596335
4	0x3f2da9e4	0.6783736
5	0xbf09cf93	-0.5383236
6	0xbe1ac719	-0.15115012
7	0x3f3fd691	0.7493678
8	0x3eb8558e	0.36002773
9	0x3ea4e8e4	0.3220893
10	0x3f37e38d	0.7183159
11	0xbef1fdac	-0.4726385
12	0x3f3c95c4	0.73666024
13	0x3f8ae9ac	1.0852561
14	0x3fdceb5d	1.7259327
15	0x3faf8fdd	1.3715779
16	0xbf9a5542	-1.2057269
17	0x3f79d997	0.9759764
18	0x3e3680d4	0.17822582
19	0xbf2c62b1	-0.6733809
20	0xbe4666d2	-0.1937516
21	0x3f0f0130	0.55861187
22	0x3f24862f	0.6426725
23	0x3f184f77	0.59496254
24	0x3ff3a7d6	1.9035594
25	0x3f22c719	0.6358505
26	0xbe20a949	-0.15689577
27	0x3ef8e239	0.48610094
28	0x3f93af5c	1.153789
29	0x3f94b71e	1.1618383
30	0x3ee24529	0.4419339
31	0x3f806be1	1.0032922
32	0x3e565344	0.20930201
33	0x3f3a7a83	0.7284319
34	0xbf56fac3	-0.8397638
35	0xbfbb5746	-1.4636009
36	0xbf62c0f4	-0.88575673
37	0xbf6faaf9	-0.9362026
38	0x3fd3e83c	1.6555247
39	0x3fbf25b4	1.4933381
40	0xbf86d940	-1.053505
41	0xbf369fd9	-0.7133766
42	0x3fe0327d	1.7515408
43	0xbf9575e4	-1.1676602
44	0x3f99cc31	1.2015439
45	0xbeb1e303	-0.3474351
46	0xbf3faca8	-0.7487283
47	0x3ebbad29	0.36655548
48	0x3fa2555a	1.2682297
49	0x3af3f959	0.001861374
50	0xc0059f69	-2.0878546
51	0x3f844eb8	1.0336523
52	0x3eba109d	0.363408
53	0xbed8c0f3	-0.4233471
54	0xbf9e5942	-1.2370989
55	0x3db8db67	0.09026223
56	0xbfcf94fa	-1.6217339
57	0x3ea71a41	0.32637218
58	0x3d98962f	0.0745052
59	0x3ed34255	0.41261545
60	0xbf0f0884	-0.5587237
61	0xbd82aae3	-0.0638025
62	0x3f0780c9	0.52930886
63	0x3f17e984	0.5934069
64	0x3e3824a4	0.17982727
65	0x3fdf0bb9	1.7425452
66	0xbe00c53f	-0.12575243
67	0xc016794b	-2.3511531
68	0x3e9c8c18	0.30575633
69	0xbe114c28	-0.14189208
70	0xbf856c61	-1.04237
71	0x3f96d17a	1.1782677
72	0x3fa05da0	1.2528572
73	0x3faef1e0	1.3667564
74	0x3f96a9b7	1.1770543
75	0x3f98c884	1.1936193
76	0xbfa108a2	-1.258076
77	0x3f96ec0a	1.1790783
78	0xbfd8e17a	-1.694381
79	0xbef389b2	-0.4756599
80	0xbec1c807	-0.3784792
81	0x3e8ba4d6	0.27274197
82	0xbeaea5ad	-0.34110776
83	0x3e10972f	0.14120172
84	0x3ea2addf	0.31773278
85	0x3f78101e	0.9689959
86	0xbf637a2c	-0.88858294
87	0x3e9bf0da	0.30457193
88	0x3f6361dc	0.88821197
89	0x3ed79412	0.42105156
90	0xbd9d2668	-0.07673341
91	0x3e19e9cf	0.15030597
92	0x3fe49a24	1.785954
93	0x3f2d7f71	0.67772585
94	0xc00fcbab	-2.246806
95	0x3f9bb8d5	1.2165781
96	0xbeb87b12	-0.36031395
97	0x3fb17d56	1.3866374
98	0xbf3157b0	-0.69274426
99	0xbf14cff4	-0.5812981
100	0xbed219ac	-0.4103521
101	0x3f8409da	1.0315506
102	0x3f7c6f1a	0.9860703
103	0x3e93f389	0.2889674
104	0x3e910077	0.28320667
105	0x3f5baca9	0.85810333
106	0xbe9544c6	-0.29154032
107	0xbf8372bb	-1.0269388
108	0x3fa886dd	1.3166157
109	0xc00598e7	-2.0874574
110	0xbfbffb6a	-1.49986
111	0xbd9b572b	-0.07584985
112	0x3f1d1e43	0.613743
113	0x3fd16345	1.635842
114	0xbf41d994	-0.7572262
115	0xbf854f21	-1.0414773
116	0x3f1f5814	0.6224377
117	0xbdfe7ebe	-0.12426518
118	0x3eb43ddc	0.35203445
119	0x3d0ba4ed	0.034092832
120	0xbf2b6120	-0.66945076
121	0x3f034847	0.5128216
122	0x3ea5893f	0.32331273
123	0xbea315aa	-0.31852466
124	0xbf7cb3bb	-0.98711747
125	0x3f39b51b	0.7254197
126	0xbf857ae3	-1.0428127
127	0xbc5ef730	-0.013608739
128	0x3f81a9ae	1.0129907
129	0x3f1466d0	0.5796938
130	0xbf301d5a	-0.68794787
131	0xbe0bc3b8	-0.1364888
132	0xbf257cc4	-0.646435
133	0xbf94b5e0	-1.1618004
134	0x3f0c9d9e	0.54928005
135	0xbf1a4e3e	-0.6027564
136	0x3f286516	0.65779245
137	0x3fac4d5f	1.3461112
138	0x3f6922d2	0.91068757
139	0x3f8e34d6	1.1109874
140	0x3fd59a0a	1.6687634
141	0xbf943616	-1.1579006
142	0xbf27e168	-0.6557832
143	0x3fb2cf24	1.3969464
144	0x3feb9d9d	1.8407475
145	0x3ff7a5d8	1.9347486
146	0xbe0929a4	-0.13394791
147	0x3ee131f8	0.43983436
148	0x3ece4d0e	0.40293163
149	0xbed86dfc	-0.4227141
150	0xbf9dc275	-1.2324969
151	0xbfc9c4f5	-1.5763232
152	0xc018060e	-2.3753695
153	0x3f7788e0	0.9669323
154	0x3d19e0c3	0.037567865
155	0xbf5938de	-0.848524
156	0x3f12a28b	0.5727927
157	0x3fe64e77	1.7992696
158	0x3f5cff01	0.86326605
159	0x4038bd48	2.8865528
160	0x3fe6d400	1.8033447
161	0x3f5563d0	0.83355427
162	0x3fa7392f	1.3064326
163	0x3ea29f2c	0.31762064
164	0xc01ef243	-2.4835365
165	0x3f3ac55a	0.72957385
166	0xbd627aa4	-0.05529274
167	0xbf3a4d05	-0.7277377
168	0x3f8f84bf	1.1212386
169	0xbf481937	-0.78163475
170	0x3e9fb375	0.31191602
171	0x3e90e925	0.28302875
172	0x3f93ea8d	1.1555954
173	0xbeff62ce	-0.4988007
174	0xbfd58794	-1.6682
175	0x3f45e016	0.77295053
176	0xbfa87121	-1.3159524
177	0x3ff42542	1.907387
178	0xbe1ae70f	-0.15127204
179	0x3eabfaec	0.33589876
180	0xbf8f1228	-1.1177416
181	0xbd343e1d	-0.04400455
182	0xbd85353e	-0.06504296
183	0xbffccdf3	-1.9750351
184	0xc011fb1e	-2.280952
185	0xbf9e7306	-1.2378852
186	0xbf1e067f	-0.6172866
187	0x3ee67143	0.45008287
188	0xbec83b53	-0.3910776
189	0xbfc08879	-1.5041648
190	0xbdd38096	-0.1032726
191	0xbf846334	-1.0342774
192	0xbf3e7c78	-0.74408674
193	0xc0043570	-2.0657616
194	0xbfe42ff5	-1.7827135
195	0x3f03cb89	0.51482445
196	0xbf2a01ef	-0.664092
197	0x3edd470d	0.4321827
198	0x3e0a60d7	0.13513504
199	0xbf0da772	-0.55333626
200	0x40432dea	3.0496774
201	0xc00d66da	-2.2094026
202	0x3cde1f6d	0.027114594
203	0xbf7e5d89	-0.99361473
204	0xbf353748	-0.7078748
205	0xbe919d18	-0.28440166
206	0xbe394a73	-0.18094806
207	0x3f4bb8b9	0.7957874
208	0xbfd731f8	-1.6812124
209	0x3e9783f7	0.2959287
210	0x3f0f26cb	0.5591857
211	0xbba3d7f0	-0.005000107
212	0x3f864a0e	1.049135
213	0x3f57a5dd	0.8423746
214	0x3e8df227	0.2772381
215	0x3f478d60	0.77950096
216	0xbf8b2db0	-1.0873318
217	0x3ffa67b5	1.9562899
218	0xbfb232e4	-1.392178
219	0xbfcf2142	-1.6182024
220	0xbfafe9ae	-1.3743188
221	0x3fb92f2c	1.4467521
222	0xbe03049e	-0.1279473
223	0x3da3983c	0.07988021
224	0xbf6a7f2a	-0.91600287
225	0xbe93402f	-0.28759906
226	0xbfa9c4fc	-1.326324
227	0xbfcb8a63	-1.5901607
228	0x3f78cf46	0.97191274
229	0xbeb750f3	-0.35803947
230	0xbfe3ca7b	-1.7796167
231	0xbecc6cf8	-0.39926887
232	0x3f94634e	1.1592805
233	0xbf66de92	-0.90183365
234	0x3ff77664	1.9333005
235	0x3c564264	0.013077352
236	0x3fc3b038	1.5288153
237	0x3f818db0	1.0121365
238	0xc01b03ed	-2.4221146
239	0x3f97da36	1.1863468
240	0x3def4b42	0.11684276
241	0xbd3d9034	-0.0462801
242	0xbf9e0b1f	-1.2347144
243	0x3d0e4c43	0.034740698
244	0xbfc68110	-1.5508137
245	0xbe6304b7	-0.22169767
246	0xbfbb3f27	-1.4628648
247	0x3d1c7229	0.03819481
248	0x3fa06ac7	1.2532586
249	0xbef55d3e	-0.479227
250	0x3ebbe3ba	0.3669718
251	0x3f5ccfe5	0.8625472
252	0x3ea6d29e	0.32582563
253	0x3ebe1868	0.37127995
254	0x3f9c1685	1.2194372
255	0xbd43fae6	-0.047846697

lstm.weight_ih_l0 f4 [600, 100]
0	0xbd9fe330	-0.078070045
1	0x3cc7a586	0.02437092
2	0xbdce62e8	-0.100774586
3	0x3e3f05a0	0.1865449
4	0x3d3df77a	0.04637859
5	0x3de4968f	0.11161529
6	0xbd789114	-0.060685232
7	0x3dc2b479	0.09507079
8	0x3d92e7e7	0.07173138
9	0x3da35d6b	0.079768024
10	0xbe31732f	-0.17329095
11	0xbe3e7db6	-0.18602642
12	0x3e2a0424	0.16603142
13	0x3d7ea2cf	0.062166985
14	0x3db94fa0	0.090483904
15	0x3e62332e	0.22089836
16	0xbd4a47a9	-0.049384747
17	0xbd72f6cd	-0.0593174
18	0xbd017986	-0.031610034
19	0xbb7584b0	-0.003746312
20	0xbb758429	-0.0037462807
21	0x3bbf9727	0.005846876
22	0x3da30fb9	0.07961983
23	0x3d15f81f	0.03661358
24	0x3ae590fa	0.001751452
25	0x3de065bb	0.109569035
26	0x3db1dc21	0.086845644
27	0x3d728a9f	0.05921423
28	0x3d62233c	0.055209383
29	0xbe0be01a	-0.13659707
30	0xbd4530fd	-0.048142422
31	0x3d95b101	0.073091514
32	0x3db3a006	0.087707564
33	0xbde316cf	-0.11088335
34	0xbd5fecb5	-0.0546691
35	0xbca82e6b	-0.020529946
36	0xbc0e77fa	-0.008695597
37	0x3c6766fb	0.014123674
38	0x3d9d67a4	0.076857835
39	0x3dc947de	0.09828161
40	0xbdf77f3e	-0.120848164
41	0x3cdff50a	0.027338523
42	0x3e1eac13	0.15495329
43	0xbdce36be	-0.10069035
44	0x3dc2dba1	0.09514547
45	0x3db21151	0.08694709
46	0x3ca4821c	0.020081572
47	0xbe07c746	-0.1325961
48	0xbdf96602	-0.121776596
49	0x3d8f5457	0.069985084
50	0xbb6f58e3	-0.0036521486
51	0xbdb93a28	-0.090442955
52	0x3e36a8b4	0.17837793
53	0xbe0f264c	-0.13979453
54	0xbd1efd96	-0.038816057
55	0xbd9b5851	-0.075852044
56	0xbde74c4d	-0.1129385
57	0x3e66b135	0.22528537
58	0x3dfe41a5	0.124148645
59	0xbdf57675	-0.119854845
60	0xbda291ce	-0.07937966
61	0x3db99d65	0.09063224
62	0x3c703b8e	0.014662636
63	0xbde3b502	-0.11118509
64	0xbc929ade	-0.017896112
65	0x3e74cbaf	0.23905824
66	0xbd87cffc	-0.06631467
67	0x3c8d895e	0.017277416
68	0x3c25b702	0.010114433
69	0x3d74dd24	0.05978121
70	0xbd3f9058	-0.046768516
71	0x3e43b986	0.1911374
72	0xbe14b1d6	-0.14520964
73	0x3e15c5e1	0.14626266
74	0x3d3f1398	0.046649545
75	0xbc4260f6	-0.011863938
76	0x3d44f532	0.0480854
77	0xbe254d06	-0.16142663
78	0xbdbe9750	-0.09306204
79	0xbdc2360e	-0.09482966
80	0xbdad2d0d	-0.084558584
81	0x3e5f2488	0.2179128
82	0x3e472c4c	0.19450492
83	0x3e13b8c4	0.14425951
84	0xbdacf82a	-0.08445771
85	0x3daf6d18	0.0856573
86	0xbe11ca31	-0.14237286
87	0xbdc5bc8d	-0.09655104
88	0xbda77b28	-0.08177787
89	0xbd9ad307	-0.075597815
90	0xbd03a4c9	-0.032139573
91	0x3e271fe6	0.16320762
92	0x3e21694a	0.15762821
93	0xbe5b6d62	-0.21428445
94	0x3d8da4bb	0.069161855
95	0x3d87ff0e	0.06640445
96	0x3dbd790e	0.09251605
97	0x3d8b1ca5	0.06792573
98	0xbd7d3db7	-0.061826434
99	0xbd9d3c04	-0.07677463
100	0x3da9f8b4	0.082993895
101	0xbe63a4b0	-0.22230792
102	0x3e150095	0.14551003
103	0x3e3d24a2	0.18471006
104	0x3ca7925e	0.020455536
105	0xbe5e5cd2	-0.21715096
106	0x3b64fa26	0.003493914
107	0xbd30c2b1	-0.043154422
108	0x3d599468	0.053120047
109	0x3e1412b5	0.14460261
110	0xbe7af849	-0.24508776
111	0xbd8514ac	-0.064980835
112	0x3e2d1dc5	0.16905887
113	0xbe6bc9de	-0.23026225
114	0xbcb90e7d	-0.022589916
115	0x3e4a7b12	0.1977351
116	0x3c8fcc09	0.017553346
117	0x3da177cb	0.07884177
118	0x3dad20c7	0.084535174
119	0x3dfa9e24	0.12237194
120	0x3e14793e	0.14499375
121	0x3e3cf4ce	0.1845276
122	0x3ce45702	0.02787352
123	0xbe29e0ed	-0.16589709
124	0x3de2f5bb	0.110820256
125	0xbe5e183c	-0.21688932
126	0x3da062dc	0.07831356
127	0xbe18762a	-0.14888826
128	0x3df0b0e9	0.11752493
129	0xbc860225	-0.016358444
130	0xbda2110a	-0.07913406
131	0x3e323aee	0.17405292
132	0x3de249b5	0.11049215
133	0xbd0b3b3f	-0.03399205
134	0xbcf56a38	-0.029957876
135	0xbdbe7641	-0.09299899
136	0xbd62f88c	-0.055412814
137	0x3e3dad81	0.18523218
138	0xbde9b378	-0.11411184
139	0x3d7fea50	0.062479317
140	0x3d8775a7	0.06614237
141	0xbda51d71	-0.08062256
142	0x3d8dc5c2	0.06922485
143	0x3db742ea	0.0894831
144	0x3d8013cd	0.06253777
145	0xbdc07039	-0.09396405
146	0xbe683d0a	-0.22679535
147	0xbdd775a8	-0.10520488
148	0xbe56c10e	-0.20972082
149	0x3e26e8ea	0.16299787
150	0x3d9699cb	0.073535524
151	0x3e08a886	0.13345537
152	0x3e1e74c0	0.15474224
153	0xbdd1a85c	-0.1023719
154	0x3d655778	0.05599162
155	0x3e01414a	0.12622562
156	0xbdcc7486	-0.099831626
157	0x3d97ad67	0.07406121
158	0xbe1b6a3c	-0.15177244
159	0xbe48559a	-0.19563904
160	0xbe10ef43	-0.14153771
161	0x3d399319	0.0453063
162	0xbda0ada9	-0.07845623
163	0xbdfec9be	-0.12440823
164	0xbe512a5b	-0.20426314
165	0x3ba7c8a9	0.005120356
166	0x3e03c903	0.12869649
167	0xbe100a53	-0.14066438
168	0x3da24846	0.07923941
169	0x3e6dd8d5	0.23227246
170	0x3e124cc3	0.14287095
171	0x3de66688	0.11250025
172	0xbe641d25	-0.22276743
173	0x3d6cd24e	0.05781775
174	0x3e2c7213	0.16840391
175	0xbe4d61a9	-0.20056786
176	0x3dd6e13b	0.10492178
177	0xbdb2eeaf	-0.087369315
178	0xbdb01c3c	-0.08599135
179	0xbdaf1acc	-0.08550033
180	0xbdbfea88	-0.09370905
181	0x3e720e3f	0.23638247
182	0x3e827610	0.254807
183	0x3e6149ee	0.22000858
184	0x3e1db2bf	0.15400217
185	0x3e22cbc2	0.1589804
186	0x3e130fa9	0.14361443
187	0xbe3f8799	-0.1870407
188	0xbdf6bd51	-0.12047828
189	0xbe124fef	-0.14288305
190	0x3e64494d	0.22293587
191	0x3dc59d0b	0.09649094
192	0x3e2cd2c6	0.16877279
193	0x3d09b008	0.033615142
194	0x3e247c13	0.16062956
195	0x3d3616e0	0.04445541
196	0xbd7a422f	-0.061098274
197	0x3e3659ce	0.17807695
198	0x3d8b566f	0.06803595
199	0x3b68396b	0.0035434614
200	0x3c8533d7	0.01626007
201	0x3d3a08bc	0.045418486
202	0x3e184c3c	0.14872831
203	0x3deb9138	0.11502308
204	0x3d2102d6	0.039309345
205	0xbdc3fd36	-0.095697805
206	0xbc3ffe23	-0.011718306
207	0xbd3d9987	-0.046288993
208	0x3df0b135	0.117525496
209	0x3d435dff	0.047697064
210	0xbde32adc	-0.11092159
211	0xbd9ac014	-0.07556167
212	0x3d7389f9	0.059457753
213	0xbe2d0313	-0.16895704
214	0x3e06d11f	0.13165711
215	0xbe037565	-0.12837751
216	0x3ca569a2	0.020191971
217	0xbe0748f2	-0.1321142
218	0xbdc57ce4	-0.096429616
219	0x3d45d4f9	0.04829881
220	0x3d8fdd37	0.07024615
221	0x3dce4efe	0.1007366
222	0x3b9a6821	0.00471212
223	0x3d8df5c3	0.06931641
224	0x3e06e5c8	0.13173592
225	0xbdb252fb	-0.087072335
226	0xbd5ce5a9	-0.05392996
227	0xbe0f125e	-0.1397185
228	0x3e155c1f	0.14585923
229	0xbd8d9ef7	-0.06915086
230	0xbde1861d	-0.11011908
231	0x3cdee59a	0.027209092
232	0x3df8ebb8	0.12154335
233	0xbbae89ca	-0.0053264843
234	0xbdbe7e43	-0.09301426
235	0xbc941710	-0.018077403
236	0x3e598fad	0.21246214
237	0xbdc6ff8b	-0.0971671
238	0xbd4166b9	-0.047217105
239	0xbdd18d96	-0.102320835
240	0xbb0afea0	-0.0021208897
241	0xbe1f18ae	-0.15536758
242	0x3d3f46db	0.046698432
243	0xbe09876f	-0.1343057
244	0x3bc104ad	0.00589045
245	0x3e30e34f	0.17274211
246	0xbbcf0c82	-0.0063186297
247	0x3e108d0b	0.14116304
248	0x3e35e905	0.17764671
249	0x3e394212	0.1809161
250	0xbe30c341	-0.17261983
251	0x3e14b9ff	0.14524077
252	0xbd212ed3	-0.039351296
253	0xbdf6cdc4	-0.120509654
254	0xbcaddbde	-0.021223005
255	0xbcd22b5b	-0.02565544

lstm.weight_hh_l0 f4 [600, 150]
0	0x3e2a82a4	0.16651398
1	0xbe2533c5	-0.1613303
2	0x3e293b85	0.16526611
3	0xbdb521ec	-0.08844361
4	0x3e785f0b	0.24255006
5	0x3e4eec63	0.20207362
6	0x3e733db0	0.23754
7	0x3d98ad8e	0.07454978
8	0xbdcd94c0	-0.100381374
9	0xbe65311f	-0.2238202
10	0xbe29d0b4	-0.1658352
11	0xbe5970ed	-0.21234484
12	0xbe83c451	-0.25735715
13	0xbdef4b2f	-0.11684262
14	0xbe1004a6	-0.14064273
15	0xbcea5780	-0.028606176
16	0xbe36b0c4	-0.17840868
17	0xbdb1286a	-0.086502865
18	0xbe4d75f6	-0.2006453
19	0xbd7fd1e8	-0.06245604
20	0xbe61979d	-0.22030492
21	0x3e156f0e	0.14593145
22	0xbdd67d09	-0.10473067
23	0xbdab1e9b	-0.08355447
24	0xbd4813ac	-0.048846886
25	0xbe58d2af	-0.2117412
26	0xbe1a1ba7	-0.15049611
27	0xbdfee1dc	-0.12445423
28	0xbe1d6975	-0.1537226
29	0xbe0b8d7a	-0.13628188
30	0xbe27ecb6	-0.16398892
31	0xbe41fe99	-0.18944778
32	0x3e191902	0.14950946
33	0xbe4ce373	-0.2000864
34	0x3e160ae0	0.14652586
35	0x3e061c25	0.13096674
36	0xbdebcfb1	-0.11514223
37	0xbe3887eb	-0.18020599
38	0x3dd43cf7	0.103631906
39	0xbdf8aa2b	-0.12141832
40	0xbe4958e5	-0.19662817
41	0xbdc7cdb0	-0.09756029
42	0x3d3c0689	0.04590467
43	0x3d5124b6	0.0510604
44	0xbe517fca	-0.20458904
45	0xbdf3399f	-0.11876225
46	0x3d660730	0.0561592
47	0x3e4999c4	0.19687563
48	0xbe0ab32c	-0.13544911
49	0x3df56b2b	0.11983331
50	0xbdfda63f	-0.123852246
51	0x3e6119c2	0.21982482
52	0xbda61a5a	-0.08110495
53	0x3dd63c27	0.10460692
54	0x3df26c61	0.11837078
55	0xbde33db7	-0.110957555
56	0x3de7c515	0.11316887
57	0xbe277542	-0.16353324
58	0x3e5a26a6	0.21303806
59	0xbd950447	-0.072762065
60	0xbe042def	-0.12908147
61	0xbdd49a15	-0.10380951
62	0x3e22479d	0.15847631
63	0xbe01b5de	-0.12667033
64	0xbda79c02	-0.08184053
65	0xbdf9b9bf	-0.121936314
66	0x3e52b034	0.20575029
67	0x3e3bec87	0.18351947
68	0x3e2dbaaf	0.16965745
69	0x3d99b452	0.075050965
70	0xbe1bf1b5	-0.15228923
71	0xbdd758c7	-0.1051498
72	0x3dbdfa1a	0.09276219
73	0x3dd5fc2a	0.10448487
74	0xbdef9a8f	-0.116994016
75	0x3e7b8d5b	0.24565642
76	0x3beda3d7	0.0072521972
77	0xbe33c0d1	-0.17554022
78	0x3db06a09	0.086139746
79	0x3cf75465	0.03019161
80	0x3c2a3d85	0.010390644
81	0x3e5ab056	0.2135633
82	0xbd2c9b8a	-0.04214052
83	0xbde782ae	-0.11304222
84	0x3daa1aba	0.08305879
85	0xbcf58d20	-0.02997452
86	0xbe69f670	-0.22847915
87	0xbbd23c10	-0.0064158514
88	0xbe128a5d	-0.14310594
89	0xbe3c3834	-0.18380815
90	0xbdb88d08	-0.090112746
91	0xbe194f9f	-0.1497178
92	0xbdf714e4	-0.120645314
93	0xbd63daf6	-0.05562874
94	0xbdf8c389	-0.1214667
95	0x3e35ecda	0.17766133
96	0x3d1b6fff	0.037948605
97	0x3d942674	0.07233897
98	0x3e07bed0	0.13256383
99	0x3d62cd6c	0.055371687
100	0xbe36c9ed	-0.17850466
101	0x3de80d86	0.113307044
102	0x3e1c500b	0.15264909
103	0x3d187527	0.0372211
104	0xbc80280a	-0.015644092
105	0x3e0c3000	0.13690186
106	0x3c24da85	0.010061865
107	0x3e30a85e	0.17251727
108	0x3d007c19	0.03136835
109	0xbe337990	-0.17526841
110	0x3dff2004	0.12457278
111	0x3dc32a05	0.09529499
112	0x3e13d797	0.1443771
113	0xbe46ac2d	-0.19401617
114	0x3d3b10a3	0.045670163
115	0x3e094a93	0.13407354
116	0x3d8f74a4	0.07004669
117	0x3db093c5	0.08621935
118	0x3cdcfa68	0.026974872
119	0x3c83140b	0.016000768
120	0x3ddf8d7e	0.10915659
121	0x3e10e82d	0.14151068
122	0xbdeb6617	-0.114940815
123	0xbd766ea9	-0.060164127
124	0x3d2aace9	0.041668806
125	0xbe5e30f3	-0.2169836
126	0xbbf08dca	-0.0073411213
127	0x3e027824	0.12741143
128	0xbe57947e	-0.21052739
129	0x3d9186b0	0.07105768
130	0xbe126253	-0.1429532
131	0xbe78ac4a	-0.24284473
132	0xbe4b0ba2	-0.19828656
133	0xbc65d30b	-0.014027367
134	0xbe65a0ff	-0.22424696
135	0xbe627a99	-0.2211708
136	0x3e664620	0.22487688
137	0x3e799fdd	0.24377389
138	0xbe520b2e	-0.20512077
139	0xbe094c47	-0.13408004
140	0xbc0ddd18	-0.00865867
141	0xbdfb9a7a	-0.122853234
142	0xbe0ff832	-0.14059523
143	0xbd8db46e	-0.0691918
144	0xbe3fc6b5	-0.18728144
145	0x3ce6ebfa	0.028188694
146	0x3e3b8ca4	0.18315369
147	0x3e3f1b42	0.18662742
148	0xbda4a434	-0.08039132
149	0xbe7ffaba	-0.24997988
150	0x3e62ee92	0.2216132
151	0xbcb4993c	-0.022045724
152	0x3d90db07	0.07073026
153	0xbe680fe6	-0.22662315
154	0x3e1170e9	0.14203228
155	0xbde89878	-0.11357206
156	0x3de63e79	0.112423845
157	0x3ddeadf6	0.10873024
158	0xbda476a1	-0.08030439
159	0xbe4e0075	-0.20117362
160	0xbe038be5	-0.12846334
161	0xbd8fd85d	-0.0702369
162	0xbdd7ab02	-0.10530664
163	0xbe532027	-0.20617734
164	0xbe5d3699	-0.21602859
165	0xbded2fae	-0.1158136
166	0xbdccf56e	-0.100077495
167	0xbe48573b	-0.19564526
168	0xbe4e1e16	-0.20128664
169	0xbd575744	-0.052573457
170	0xbe4876bd	-0.19576545
171	0x3de67e8a	0.11254604
172	0xbcc7516a	-0.024330813
173	0xbdc04e60	-0.09389949
174	0x3df3b067	0.118988805
175	0xbdcdf43c	-0.1005635
176	0xbda995ad	-0.082805015
177	0xbe20bb9a	-0.15696564
178	0xbdfe9fde	-0.12432836
179	0xbe41e13c	-0.18933576
180	0xbdffaad4	-0.12483755
181	0xbe5be3e2	-0.21473649
182	0x3e27c4e2	0.16383699
183	0xbe1f4f96	-0.15557703
184	0x3d9c96c7	0.07645946
185	0x3de7ec8d	0.11324415
186	0xbdc31cc1	-0.09526969
187	0xbe18209e	-0.14856192
188	0x3dfab89b	0.12242242
189	0xbde4186f	-0.11137473
190	0xbe4e3356	-0.2013677
191	0x3d285155	0.04109319
192	0x3e4dd2c9	0.2009994
193	0x3dfbd1fb	0.1229591
194	0xbe64f987	-0.22360812
195	0xbe6ee9e7	-0.23331414
196	0x3dba39ef	0.09093081
197	0x3deee76f	0.11665236
198	0xbe04a814	-0.12954742
199	0x3e585415	0.21125825
200	0xbd321c1f	-0.04348385
201	0x3e6cb376	0.23115334
202	0xbdf0b480	-0.11753178
203	0x3e40dad0	0.1883347
204	0x3d895d9b	0.06707307
205	0xbe6ebd8b	-0.23314492
206	0x3e7d5a33	0.2474144
207	0xbe527a05	-0.2055436
208	0x3e36b32b	0.17841785
209	0x3d228fba	0.03968785
210	0xbe5f80da	-0.21826497
211	0xbe0afbe4	-0.13572651
212	0x3de68d17	0.112573795
213	0xbe393c17	-0.18089329
214	0xbe1c2214	-0.15247375
215	0xbe559d95	-0.20860894
216	0x3e04aac3	0.12955765
217	0x3d9ff687	0.07810693
218	0x3e38d8d8	0.1805147
219	0x3dfeb0aa	0.1243604
220	0xbe4099a4	-0.18808609
221	0xbdf39b7e	-0.11894892
222	0x3da9185d	0.082566
223	0x3e51d9e7	0.2049328
224	0xbe12c4a5	-0.14332826
225	0x3d91f02c	0.07125887
226	0x3d5b5c9c	0.053555116
227	0xbe416180	-0.1888485
228	0x3e854c83	0.26034936
229	0xbe33ddfb	-0.17565148
230	0x3ca28c42	0.01984227
231	0x3e1d27e0	0.15347242
232	0xbdf45412	-0.11930098
233	0xbd800285	-0.062504806
234	0x3dec217a	0.11529823
235	0x3d5d1695	0.053976614
236	0xbe058b11	-0.13041331
237	0xbd72008b	-0.05908255
238	0xbe0c4604	-0.13698584
239	0xbdf9ccda	-0.121972755
240	0xbe07fa05	-0.13278969
241	0xbdbfa827	-0.093582444
242	0xbdfd8104	-0.123781234
243	0xbe50c080	-0.20385933
244	0xbe82596e	-0.25458854
245	0x3de590a6	0.1120923
246	0x3da8023f	0.082035534
247	0x3e2c71f3	0.16840343
248	0x3cdcb29f	0.026940642
249	0x3d877eb8	0.066159666
250	0xbe2920da	-0.16516438
251	0x3d79c264	0.0609764
252	0x3e186bb0	0.1488483
253	0xbde63738	-0.11241001
254	0xbd0204cf	-0.031742867
255	0x3dd20a78	0.10255903

lstm.bias_ih_l0 f4 [600]
0	0x3e0aee3b	0.1356744
1	0x3e689e8e	0.22716734
2	0x3e6fcd47	0.23418151
3	0x3ddfb0e7	0.10922413
4	0x3e0ebee2	0.13940004
5	0x3dbef1e3	0.0932348
6	0x3d8b4032	0.06799354
7	0x3daf4a33	0.08559074
8	0x3da3a959	0.07991285
9	0x3e312b82	0.17301753
10	0x3da23b23	0.07921436
11	0x3e2cd2a7	0.16877232
12	0x3da8bda2	0.082392946
13	0x3d88271a	0.06648083
14	0x3db70af9	0.0893764
15	0x3e54163d	0.20711608
16	0x3e1a0a54	0.15043002
17	0x3e41164c	0.18856162
18	0x3dd7f7fb	0.105453454
19	0x3e4827db	0.19546454
20	0x3de271da	0.11056872
21	0x3e6d47b3	0.23171882
22	0x3e23e85e	0.1600661
23	0x3e6227db	0.22085516
24	0x3e5ec273	0.21753864
25	0x3e1131b3	0.14179115
26	0x3db9311a	0.090425685
27	0x3e50c033	0.20385818
28	0x3e1b5c7b	0.15171997
29	0x3e20010e	0.15625402
30	0x3df3f6d6	0.119123146
31	0x3df95d60	0.12176013
32	0x3e395be7	0.18101464
33	0x3e34e9c8	0.17667305
34	0x3e1ed6f1	0.15511681
35	0x3dd539f3	0.104114436
36	0x3e128dda	0.14311925
37	0x3df9f5f8	0.12205118
38	0x3e4858d3	0.19565134
39	0x3e07de5e	0.1326842
40	0x3dd62e30	0.10458028
41	0x3e647027	0.22308408
42	0x3e38931f	0.18024872
43	0x3dcc16aa	0.0996526
44	0x3e6bea07	0.23038493
45	0x3db7352e	0.0894569
46	0x3de2b03b	0.110687695
47	0x3dc95688	0.09830958
48	0x3e4ce385	0.20008667
49	0x3e0eca82	0.13944438
50	0x3dbf01cc	0.093265146
51	0x3dd39a19	0.10332126
52	0x3e6ac703	0.2292748
53	0x3e1a7433	0.15083389
54	0x3dd7c757	0.10536068
55	0x3dd53c61	0.10411907
56	0x3d9e1ef5	0.07720748
57	0x3db8b1fa	0.09018321
58	0x3e42ec7b	0.19035523
59	0x3e7abc11	0.24485804
60	0x3da151a0	0.07876897
61	0x3e1adf37	0.15124212
62	0x3ddccdeb	0.10781463
63	0x3e3e5588	0.18587315
64	0x3e006062	0.12536767
65	0x3dc8d7aa	0.0980676
66	0x3d933824	0.07188442
67	0x3e4c553a	0.19954386
68	0x3da473b2	0.0802988
69	0x3e2c1a11	0.16806819
70	0x3e4ae2e6	0.19813117
71	0x3e3a540d	0.18196125
72	0x3dc1a82d	0.09455905
73	0x3d8325d1	0.06403697
74	0x3d86fac7	0.06590801
75	0x3e3667f2	0.1781309
76	0x3dc12fb2	0.09432925
77	0x3dde0b80	0.10842037
78	0x3df2a417	0.11847704
79	0x3e4bfe2d	0.19921179
80	0x3e51aa25	0.20475061
81	0x3dd73ee1	0.1051004
82	0x3e2ac3a4	0.16676193
83	0x3e752b1f	0.2394223
84	0x3e3280ca	0.17431942
85	0x3e27baed	0.163799
86	0x3e6f6c72	0.23381212
87	0x3e7bc49a	0.24586716
88	0x3d957499	0.0729763
89	0x3dce8be2	0.10085274
90	0x3e1ce661	0.15322258
91	0x3e2a5571	0.16634156
92	0x3dde109e	0.10843013
93	0x3e49a991	0.1969359
94	0x3e2277ec	0.15866059
95	0x3dc2ff78	0.09521383
96	0x3df6fa98	0.12059516
97	0x3e1cea70	0.15323806
98	0x3e7f7b13	0.24949293
99	0x3e362e40	0.1779108
100	0x3e2f25f1	0.17104317
101	0x3e5ee552	0.21767166
102	0x3e354dfc	0.1770553
103	0x3d9d35a1	0.076762445
104	0x3e576807	0.21035777
105	0x3e4d9755	0.2007726
106	0x3e258035	0.16162188
107	0x3dd8fc2a	0.105949715
108	0x3e4dcc22	0.20097402
109	0x3dfd97db	0.1238248
110	0x3e549519	0.20760001
111	0x3dd30a26	0.1030467
112	0x3e414b80	0.18876457
113	0x3dcf45a3	0.10120704
114	0x3e5979e6	0.21237907
115	0x3e034620	0.1281972
116	0x3de8563b	0.11344572
117	0x3e3fdf46	0.18737516
118	0x3dbfe5a4	0.09369972
119	0x3e73dbaa	0.23814264
120	0x3e07f2b2	0.13276175
121	0x3dd20a56	0.10255878
122	0x3e68cf14	0.22735244
123	0x3e165b68	0.14683306
124	0x3e30fc47	0.17283736
125	0x3dad9108	0.08474928
126	0x3e036ad7	0.12833725
127	0x3e39be07	0.18138896
128	0x3de9a953	0.11409249
129	0x3e1b8d02	0.15190509
130	0x3e3ac999	0.18240966
131	0x3dd2efb5	0.10299627
132	0x3e158bf2	0.14604166
133	0x3e532a93	0.2062171
134	0x3e0b8990	0.13626695
135	0x3dfbac99	0.1228878
136	0x3df68186	0.120364234
137	0x3e3b6624	0.18300682
138	0x3da156cc	0.07877883
139	0x3d62638f	0.055270728
140	0x3e5aed4f	0.21379589
141	0x3dd801b5	0.105472006
142	0x3e1b07b0	0.15139651
143	0x3e3b344f	0.18281673
144	0x3d86f51e	0.06589721
145	0x3e4cdd30	0.20006251
146	0x3e0e7e52	0.13915375
147	0x3e1c2eac	0.15252179
148	0x3df07ff4	0.11743155
149	0x3e4e9db5	0.20177348
150	0x3e045a96	0.12925181
151	0xbd900cbd	-0.0703368
152	0x3dd89b81	0.10576535
153	0x3e032445	0.12806804
154	0x3dabf21d	0.08395789
155	0x3d67cfba	0.056594588
156	0x3d006003	0.031341564
157	0x3d03b907	0.032158878
158	0x3d8a3668	0.067486584
159	0x3e10c32d	0.14136954
160	0x3dd56328	0.10419303
161	0x3e0edafe	0.13950726
162	0xbc807e70	-0.01568529
163	0x3d472a39	0.04862425
164	0xb985d7bc	-0.0002552847
165	0xbd8421a4	-0.06451729
166	0x3dd0676e	0.10175978
167	0x3d9fc679	0.078015275
168	0xbd0be7a4	-0.034156457
169	0x3d59bb5a	0.053157188
170	0x3d4918e6	0.04909601
171	0x3cbac2fe	0.022798058
172	0xbcba6fe0	-0.022758424
173	0x3d15f6c4	0.036612287
174	0xbcbf8a4e	-0.023381379
175	0x3df815ee	0.12113558
176	0x3c1a3485	0.009411936
177	0x3db5c660	0.08875728
178	0x3e06cbfd	0.13163753
179	0x3d551a93	0.052027296
180	0x3db76912	0.089555874
181	0xbcaf0c4d	-0.02136817
182	0xbd447162	-0.047959693
183	0x3d9345c7	0.07191043
184	0x3cc525a9	0.02406581
185	0xbbab6ae8	-0.00523125
186	0x3dcfd51d	0.1014807
187	0x3dfc7bf5	0.123283304
188	0xbd7c2c59	-0.06156573
189	0x3e0ac1ac	0.13550442
190	0x3b919bb7	0.0044436115
191	0xbcf73ace	-0.030179407
192	0x3c1d655b	0.009606685
193	0x3dbf109c	0.0932934
194	0x3d6260d2	0.055268116
195	0xbbf9f6aa	-0.0076282816
196	0x3bc6e342	0.0060695717
197	0x3e1faa95	0.15592416
198	0x3c0736dd	0.0082528265
199	0x3d1bb241	0.038011793
200	0x3d82a3d2	0.063789025
201	0x3dca714d	0.09884892
202	0x3d5139cb	0.051080506
203	0x3d33d0dd	0.04390036
204	0x3de4e074	0.111756235
205	0x3d552206	0.0520344
206	0x3d6026ae	0.054724388
207	0x3dcb0fbe	0.09915112
208	0xbd09d5e5	-0.03365125
209	0xbd1091f8	-0.035295457
210	0x3dac0d43	0.08400967
211	0x3d837eb8	0.06420654
212	0x3d258e75	0.04041906
213	0x3ded63d7	0.115913086
214	0x3d44aad3	0.048014473
215	0x3c76846a	0.015046218
216	0x3de8ee0b	0.11373528
217	0x3d39c55d	0.045354236
218	0xbbd10d42	-0.0063797543
219	0x3d6e78f0	0.058220804
220	0x3d7126b3	0.058874797
221	0x3d5413a4	0.051776543
222	0x3d56afa3	0.052413594
223	0x3dc464a7	0.095895104
224	0x3e16330c	0.1466791
225	0x3dc12bec	0.094322056
226	0x3d9d6c93	0.076867245
227	0x3dbdd90e	0.092699155
228	0x3dc02ab7	0.09383147
229	0x3c97e81a	0.018543292
230	0x3c99a694	0.018756188
231	0x3da29457	0.0793845
232	0x3caac340	0.020845056
233	0x3d73f58f	0.059560355
234	0x3da04b80	0.078269005
235	0x3c5c8219	0.013458752
236	0x3e1a8acf	0.15092014
237	0x3d57f92f	0.052727874
238	0x3dab0a65	0.08351592
239	0x3d7db4bb	0.061939936
240	0xbca3daa5	-0.020001719
241	0x3d54c176	0.05194231
242	0x3d4536d8	0.048148006
243	0x3bb37fa4	0.0054778624
244	0xbb6c294f	-0.0036035364
245	0x3d6d8f3d	0.05799793
246	0xbd9e3e51	-0.0772673
247	0x3d2ebd3f	0.042660948
248	0x3d63856d	0.055547167
249	0xbc078802	-0.008272173
250	0x3e20c424	0.15699822
251	0x3db17335	0.08664552
252	0x3cba8545	0.022768626
253	0xbd9e14c5	-0.07718805
254	0x3cc9a75e	0.02461594
255	0x3dc96255	0.098332085

lstm.bias_hh_l0 f4 [600]
0	0x3e270586	0.16310701
1	0x3e11b043	0.14227395
2	0x3e51a4c3	0.20473008
3	0x3e331292	0.17487553
4	0x3dbe7de8	0.093013585
5	0x3e3d9299	0.18512954
6	0x3e4be72c	0.19912404
7	0x3dcd92d9	0.100377746
8	0x3df6736a	0.12033732
9	0x3e4eaade	0.20182368
10	0x3e14235b	0.14466612
11	0x3e0a0927	0.13480054
12	0x3e2ff39e	0.17182776
13	0x3e10bd58	0.14134729
14	0x3e3a6e3a	0.1820611
15	0x3e37e98c	0.17960185
16	0x3d4275e1	0.0474757
17	0x3e08a434	0.13343889
18	0x3e468dbd	0.19390006
19	0x3dc51596	0.09623258
20	0x3e322696	0.17397532
21	0x3e37f985	0.17966278
22	0x3db0c421	0.086311586
23	0x3de87826	0.113510415
24	0x3e197711	0.14986826
25	0x3e1c3de5	0.15257986
26	0x3dbd4149	0.09240968
27	0x3dce049e	0.100594744
28	0x3e39b9f1	0.18137337
29	0x3d37f584	0.044911876
30	0x3e0ea06f	0.13928388
31	0x3ddce237	0.107853346
32	0x3e268b1a	0.16264
33	0x3da1b5fa	0.078960374
34	0x3e5af66a	0.21383062
35	0x3e59bd6d	0.21263666
36	0x3e49b22e	0.19696876
37	0x3d851918	0.06498927
38	0x3e498f73	0.19683628
39	0x3e03d3e8	0.12873805
40	0x3d9c2b41	0.076254375
41	0x3e62a341	0.22132589
42	0x3e59ca4d	0.21268578
43	0x3ddb43a0	0.10706258
44	0x3e2a213b	0.16614239
45	0x3e40fa4c	0.1884548
46	0x3d8f1e34	0.06988183
47	0x3e5c9e14	0.21544677
48	0x3e4a5d63	0.19762187
49	0x3e1c52e2	0.15265992
50	0x3e3f1188	0.18659031
51	0x3e0cffcc	0.13769454
52	0x3e794376	0.2434214
53	0x3db24ffe	0.087066635
54	0x3e04f068	0.12982333
55	0x3de96e79	0.11398024
56	0x3e5f92bc	0.21833318
57	0x3e493c7d	0.1965198
58	0x3e24937a	0.16071883
59	0x3dfb6e1b	0.1227686
60	0x3d4b197e	0.049584858
61	0x3e34af09	0.17644896
62	0x3e48f432	0.19624403
63	0x3e0f20f3	0.13977413
64	0x3e11b1e0	0.1422801
65	0x3e42ca5f	0.19022511
66	0x3e240800	0.16018677
67	0x3d64db3b	0.055873137
68	0x3deeb609	0.11655814
69	0x3dddbf52	0.10827507
70	0x3e24fdac	0.16112393
71	0x3e0fbcba	0.14036837
72	0x3ddd2b1d	0.10799239
73	0x3e25a4f0	0.161762
74	0x3e38e663	0.18056636
75	0x3e27709a	0.16351548
76	0x3d900cd3	0.07033696
77	0x3e22ef9a	0.15911713
78	0x3e1311f1	0.14362313
79	0x3e3c40bf	0.18384074
80	0x3d936a19	0.07197971
81	0x3dec820a	0.115482405
82	0x3e529c1a	0.2056736
83	0x3e6a4a67	0.22879945
84	0x3e604962	0.21902993
85	0x3e71d596	0.23616633
86	0x3dad012f	0.084474914
87	0x3dfa31c7	0.122165255
88	0x3e657c7a	0.22410765
89	0x3e6cd826	0.23129329
90	0x3e2d83ee	0.16944858
91	0x3d9c9cb9	0.0764708
92	0x3e4bd09c	0.19903797
93	0x3e3093e8	0.17243922
94	0x3e2ee4a8	0.17079413
95	0x3e7ace69	0.24492802
96	0x3e56fb3e	0.20994279
97	0x3e01bcee	0.12669727
98	0x3dd90ad5	0.10597769
99	0x3de7ed00	0.11324501
100	0x3e4566c4	0.19277483
101	0x3e2f1643	0.17098336
102	0x3d4cc346	0.049990915
103	0x3dc4302b	0.095795
104	0x3e07b6ad	0.13253279
105	0x3e119077	0.14215265
106	0x3e2dbf58	0.16967523
107	0x3e2b9b25	0.16758402
108	0x3ddad574	0.10685244
109	0x3e02ab96	0.12760767
110	0x3da46199	0.08026428
111	0x3dcc89d1	0.09987224
112	0x3e161839	0.14657678
113	0x3e0c8e2b	0.13726108
114	0x3e342cab	0.17595164
115	0x3de88c77	0.113549165
116	0x3e18d910	0.14926553
117	0x3e5d94aa	0.21638742
118	0x3e67cd40	0.2263689
119	0x3e275eac	0.16344708
120	0x3e6db47d	0.23213382
121	0x3e5031cf	0.203315
122	0x3e08d265	0.13361509
123	0x3e1dc1a2	0.15405896
124	0x3e44de48	0.19225419
125	0x3e5b6a99	0.21427383
126	0x3e3a42b6	0.1818951
127	0x3dd58470	0.10425651
128	0x3dd9f955	0.106432594
129	0x3dcd2330	0.10016477
130	0x3e472fe5	0.19451864
131	0x3defd347	0.1171022
132	0x3d614a14	0.055002287
133	0x3e412aa6	0.18863925
134	0x3d975f02	0.07391168
135	0x3e178eba	0.1480054
136	0x3e21f352	0.15815476
137	0x3e0b68b6	0.13614163
138	0x3e1c1f6b	0.1524636
139	0x3e3a87df	0.18215893
140	0x3e4c49ab	0.19949977
141	0x3e503e8f	0.20336364
142	0x3e18394d	0.14865609
143	0x3e1d27e6	0.15347251
144	0x3e2c751a	0.16841546
145	0x3e7d8948	0.247594
146	0x3dff421c	0.12463781
147	0x3daca717	0.08430307
148	0x3e3e408b	0.18579309
149	0x3deb821b	0.11499425
150	0x3daab280	0.083348274
151	0x3d83b3c4	0.06430772
152	0x3d03e6e8	0.03220263
153	0x3dbe30d3	0.09286656
154	0x3dd2c51f	0.10291504
155	0x3db02e3a	0.08602567
156	0x3c5c7076	0.013454547
157	0x3cc7234a	0.02430882
158	0x3db0be37	0.086300306
159	0x3da099d5	0.07841841
160	0xbca22c77	-0.019796593
161	0x3e0b1181	0.13580896
162	0x3d8c0637	0.06837123
163	0x3d9bfce7	0.07616597
164	0xbd5972af	-0.053087886
165	0x3d42da24	0.047571316
166	0x3cbea0c1	0.023270013
167	0x3c9d96e7	0.019236995
168	0xbd564210	-0.052309096
169	0x3d2a2a01	0.041543964
170	0xbc9ebf58	-0.01937835
171	0x3b8ea58e	0.0043532318
172	0xbd8dbfe8	-0.06921369
173	0x3d6c5afa	0.05770395
174	0xbd354ff3	-0.0442657
175	0xbcce6e64	-0.025199123
176	0x3c43dc61	0.011954398
177	0x3c85bf73	0.016326642
178	0x3c38cb53	0.011278945
179	0x3e2db673	0.1696413
180	0x3d59479d	0.05304681
181	0x3d638c31	0.05555362
182	0xbd7c8883	-0.061653625
183	0x3be6b31c	0.0070403945
184	0xbcbdea3c	-0.02318298
185	0xbbcf67c8	-0.0063295104
186	0x3be1f705	0.006895902
187	0x3dc799da	0.09746142
188	0xbd8f14a1	-0.069863565
189	0x3d999b56	0.07500331
190	0x3d10a4e1	0.03531349
191	0x3cc86a15	0.024464646
192	0xbd16dd57	-0.03683218
193	0x3c157631	0.009122417
194	0x3d83648b	0.064156614
195	0x3c87f429	0.016595917
196	0x3d547a8c	0.051874682
197	0x3d200cb7	0.039074626
198	0x3d74335c	0.059619293
199	0x3dfe4721	0.124159105
200	0x3dbbe003	0.09173586
201	0xbcf87566	-0.030329417
202	0xbcfc091e	-0.030766066
203	0x3d0d5c9e	0.034512155
204	0x3d6e13b2	0.05812425
205	0x3e053292	0.13007572
206	0x3da96250	0.08270705
207	0x3d4dd184	0.050248638
208	0xbd3e931f	-0.046527024
209	0x3c165c14	0.009177227
210	0x3d844a44	0.064594775
211	0x3e0f8e56	0.1401914
212	0x3dfc0175	0.123049654
213	0x3de8fe4f	0.113766305
214	0x3db8e275	0.09027568
215	0x3c2d71d2	0.010586219
216	0xbc6087c3	-0.013704243
217	0x3d0bcde1	0.03413189
218	0x3a5e008b	0.0008468709
219	0xbaa77365	-0.0012775479
220	0x3cdf0bdf	0.02722734
221	0x3dff9d9f	0.12481236
222	0x3caa21bf	0.020768045
223	0xbd50b1df	-0.05095088
224	0x3c1d7eb3	0.009612727
225	0x3e1ca6a1	0.15297939
226	0x3dea8c4d	0.114525415
227	0x3d0a25a0	0.03372729
228	0x3d539273	0.051653337
229	0x3bc6bb08	0.0060647763
230	0x3d8d5223	0.06900432
231	0x3c40fa15	0.011778374
232	0xbd11fc9e	-0.035641305
233	0xbd557560	-0.05211389
234	0xbd07ade5	-0.033124823
235	0x3dcc6ab2	0.09981288
236	0x3da8256a	0.08210261
237	0x3d69b12d	0.057053734
238	0x3e015eca	0.12633815
239	0x3d241626	0.040060185
240	0xbc7ba24a	-0.015358517
241	0x3e06723e	0.13129517
242	0x3d5168a5	0.051125187
243	0xbd04da55	-0.03243478
244	0xbcfe8f6b	-0.031074246
245	0xbc5bbdae	-0.013411922
246	0xbe101ef0	-0.14074302
247	0x3ddb4b8c	0.10707769
248	0x3d0b233a	0.03396914
249	0x3d492705	0.049109478
250	0x3caa5bde	0.020795759
251	0x3cd819bf	0.026379464
252	0x3dfe59bb	0.124194585
253	0xbd13df47	-0.036101606
254	0xbcaaf564	-0.020868964
255	0x3d8f4827	0.06996184

fc.weight f4 [90, 150]
0	0x3e153ffe	0.14575192
1	0x3e28bce0	0.164783
2	0xbe5af0d7	-0.21380936
3	0x3e88f153	0.26746616
4	0x3dd09366	0.10184364
5	0xbe68ef5e	-0.22747561
6	0x3e378257	0.17920814
7	0x3e0d22d5	0.13782819
8	0xbe161dad	-0.14659758
9	0xbd9751e9	-0.0738867
10	0x3e516077	0.20446955
11	0xbe40138e	-0.1875746
12	0xbe0f2aec	-0.13981217
13	0x3decba3b	0.11558958
14	0xbdab00ac	-0.083497375
15	0x3e34cef6	0.17657074
16	0xbe50c2b4	-0.20386773
17	0x3d99c035	0.07507364
18	0xbe68aa6f	-0.22721265
19	0x3d727fff	0.059204098
20	0xbde4a984	-0.11165145
21	0xbdb72fbb	-0.08944651
22	0xbd4847ed	-0.04889672
23	0xbe64e79d	-0.22353978
24	0x3e0e6d3b	0.13908856
25	0x3e7f87a4	0.24954087
26	0x3e807caf	0.25095126
27	0xbe1c5303	-0.15266041
28	0xbe2466bd	-0.16054817
29	0xbe2e5e57	-0.17028175
30	0x3c492489	0.012276777
31	0xbe293a93	-0.1652625
32	0xbd0b2a43	-0.03397585
33	0x3e0c4a81	0.13700296
34	0xbe023c71	-0.12718369
35	0x3e7382b2	0.23780325
36	0xbe4fec5c	-0.20305008
37	0xbe3f88d0	-0.18704534
38	0x3e5a3275	0.2130831
39	0xbdbb8562	-0.091563
40	0x3e618dbd	0.22026725
41	0xbe66730f	-0.22504829
42	0xbe1130ad	-0.14178725
43	0xbdb35dc1	-0.087581165
44	0x3e67cf7c	0.22637743
45	0x3e511583	0.20418362
46	0x3e864be1	0.26229766
47	0xbe405a97	-0.18784557
48	0xbea7dcb8	-0.32785583
49	0x3e04f33a	0.12983409
50	0xbe01aa39	-0.12662591
51	0xbe20d55a	-0.15706387
52	0x3e606e29	0.21917023
53	0xbe508d25	-0.20366342
54	0x3e85431d	0.26027766
55	0xbe0d43a7	-0.13795339
56	0x3e5f1cd5	0.21788342
57	0xbe5fc3c7	-0.21852027
58	0xbde653c9	-0.112464495
59	0x3e590a60	0.21195364
60	0x3e92facb	0.28706965
61	0x3e669aa6	0.22519931
62	0x3e161700	0.14657211
63	0x3d1fbea1	0.039000157
64	0xbda95763	-0.08268621
65	0x3e779c63	0.2418075
66	0xbe8c0030	-0.27343893
67	0x3e379a41	0.17929937
68	0xbe6f0b80	-0.2334423
69	0xbe3ba4b6	-0.18324551
70	0xbe6c6fd4	-0.23089534
71	0xbe21a3d2	-0.15785149
72	0x3e2e192c	0.1700179
73	0xbd8c5866	-0.06852798
74	0x3d64a4d7	0.055821266
75	0x3e1fd890	0.15609956
76	0xbe385e79	-0.18004788
77	0xbdb2848f	-0.0871669
78	0x3dfac936	0.12245409
79	0xbe38ddcb	-0.18053357
80	0x3e47df16	0.19518694
81	0x3d8db29c	0.06918833
82	0xbe5a5558	-0.21321619
83	0xbe5f0b1b	-0.2178158
84	0xbe28dfcb	-0.1649162
85	0xbe648668	-0.22316897
86	0xbe48f82b	-0.19625919
87	0x3e988b1a	0.29793626
88	0xbe918b51	-0.28426602
89	0xbe89777e	-0.26848978
90	0xbe366f20	-0.17815828
91	0xbb5e36aa	-0.0033907094
92	0xbe590a03	-0.21195225
93	0x3e735313	0.23762159
94	0x3e826db2	0.25474316
95	0xbe4041e1	-0.18775131
96	0x3e23d6f8	0.15999973
97	0x3e132672	0.14370134
98	0xbdb28a75	-0.08717815
99	0x3e61de0b	0.22057359
100	0xbe4409d8	-0.1914438
101	0x3d929f26	0.071592614
102	0xbe6acfae	-0.22930786
103	0x3e68242a	0.22670045
104	0xba781815	-0.0009464038
105	0xbe41309a	-0.18866196
106	0x3e0a5bbc	0.13511556
107	0xbcfcafd7	-0.030845566
108	0xbddb3ef9	-0.107053705
109	0xbe3250e6	-0.17413673
110	0x3e461b45	0.1934634
111	0xbe6eaeac	-0.2330882
112	0xbe5452e4	-0.20734745
113	0xbde325a9	-0.110911675
114	0xbd9d5685	-0.07682518
115	0x3cf75423	0.030191487
116	0x3e66b30f	0.22529243
117	0x3dabced6	0.0838906
118	0x3dc40429	0.09571106
119	0x3e451f1c	0.19250149
120	0x3e6a7d16	0.22899279
121	0xbe5517f2	-0.20809916
122	0xbddd81c2	-0.10815765
123	0xbe432f69	-0.19061054
124	0x3c6b5b92	0.014365094
125	0x3e42a022	0.19006398
126	0xbae16650	-0.0017196629
127	0x3e36cdd9	0.17851962
128	0x3e4a753a	0.19771281
129	0xbe48ea46	-0.19620618
130	0x3e2d1f73	0.16906528
131	0xbe6a7a86	-0.22898301
132	0x3e1de148	0.15417969
133	0xbe8ca48c	-0.2746929
134	0x3d9e05a8	0.077159226
135	0x3e2318ca	0.15927425
136	0x3dcbc0fa	0.09948917
137	0x3d42033a	0.04736636
138	0xbe2bb959	-0.16769923
139	0xbd3c2868	-0.045936972
140	0x3e1aeee6	0.15130195
141	0xbe634ff8	-0.22198474
142	0x3e1a5fc1	0.1507559
143	0xbe7602eb	-0.2402455
144	0x3e6885c7	0.22707282
145	0xbe707386	-0.23481569
146	0x3e34b588	0.17647374
147	0x3cc80eea	0.024421174
148	0xbe81855b	-0.25297055
149	0xbe35a910	-0.17740273
150	0xbe6fe17e	-0.23425862
151	0xbe5d5780	-0.2161541
152	0x3d175b8e	0.036952548
153	0x3d8757db	0.06608554
154	0xbd80d858	-0.06291264
155	0x3de56823	0.11201503
156	0xbe77c3b0	-0.24195743
157	0x3dda61c0	0.106631756
158	0x3e50f945	0.20407589
159	0x3e652618	0.22377813
160	0xbdf33d86	-0.11876969
161	0x3e352ddf	0.1769328
162	0x3e8ef145	0.2791845
163	0x3e88d362	0.26723772
164	0xbe33abc8	-0.17545998
165	0xbdea5d15	-0.11443535
166	0x3e3fe38b	0.18739145
167	0xbda530e4	-0.08065966
168	0x3e967476	0.29385728
169	0xbd927761	-0.07151676
170	0x3e85b0a3	0.26111326
171	0xbe82b80f	-0.2553105
172	0xbe76a014	-0.24084502
173	0x3dec4297	0.115361385
174	0x3e70eaee	0.23527119
175	0xbe14c2fd	-0.14527507
176	0x3e643b8f	0.22288345
177	0x3dcfea0c	0.10152063
178	0x3dcdce84	0.10049155
179	0x3e629d1c	0.22130245
180	0xbe25a388	-0.16175663
181	0xbe0927c4	-0.13394076
182	0xbdbf4dc8	-0.093410075
183	0x3cdd741a	0.0270329
184	0x3e24baba	0.16086856
185	0xbda3ee01	-0.0800438
186	0xbdc905ce	-0.0981556
187	0x3e28e69b	0.16494219
188	0x3d25916c	0.04042189
189	0x3e1844d9	0.14870013
190	0x3e8c2f75	0.27379957
191	0x3e750b33	0.23930053
192	0x3e2c1e2a	0.16808382
193	0x3e6ad944	0.22934443
194	0xbe35d9f6	-0.17758927
195	0x3e83e64a	0.25761634
196	0x3e48ffa0	0.19628763
197	0xbdc44807	-0.095840506
198	0x3e27a70b	0.16372316
199	0x3de1df86	0.11028962
200	0x3e81c365	0.25344387
201	0x3debe908	0.115190566
202	0x3e45d363	0.19318919
203	0x3e4cc1cd	0.19995804
204	0x3e1d387d	0.1535358
205	0x3e62aee9	0.22137035
206	0xbe60604f	-0.21911739
207	0xbb203f87	-0.0024451928
208	0x3e14fa70	0.1454866
209	0x3e7212e6	0.23640022
210	0x3e242d5c	0.16032928
211	0x3dc088a4	0.09401062
212	0xbe1b31c2	-0.151557
213	0xbdd28ba6	-0.10280542
214	0xbe7a3edf	-0.24438046
215	0x3e1506c3	0.1455336
216	0x3dee17f8	0.116256654
217	0x3e6965d0	0.22792745
218	0x3e1c1049	0.15240587
219	0xbe4fe7b6	-0.20303234
220	0xbdba16d0	-0.090863824
221	0x3e1d0cea	0.15336958
222	0xbe5a1b50	-0.21299481
223	0x3dad8924	0.08473423
224	0xbdc20774	-0.09474078
225	0x3e7aff53	0.24511461
226	0x3e1d5b8b	0.15366952
227	0xbe8711cc	-0.26380765
228	0x3e82ca55	0.25544992
229	0xbe62d7bf	-0.22152613
230	0x3e0b9fa0	0.13635111
231	0x3e254a9e	0.16141745
232	0xbe7a7f8b	-0.24462716
233	0xbe383e07	-0.17992412
234	0x3e6629a2	0.22476819
235	0xbe3f7b6c	-0.18699425
236	0xbd9f9289	-0.07791621
237	0xbe6f93aa	-0.23396173
238	0x3c14da2a	0.0090852175
239	0xbdf46135	-0.11932603
240	0x3e30d29d	0.17267843
241	0xbe27303f	-0.16326998
242	0xbe221463	-0.1582809
243	0xbe925055	-0.28576913
244	0xbd83f136	-0.06442492
245	0x3de0ec35	0.10982553
246	0x3e46e4ee	0.19423267
247	0x3e1fd31c	0.15607876
248	0x3e6ea55c	0.23305267
249	0x3e1ec299	0.1550392
250	0x3d606813	0.054786753
251	0xbe0cbc63	-0.13743739
252	0x3cdc1dc5	0.026869664
253	0xbdf08058	-0.1174323
254	0xbe497ba0	-0.19676065
255	0x3d95821d	0.07300208

fc.bias f4 [90]
0	0x3db34037	0.087524824
1	0xbdd9c9d7	-0.10634201
2	0xbdbb6c73	-0.091515444
3	0xbe1bc74c	-0.15212744
4	0x3d8cdd87	0.068781905
5	0xbdcecc80	-0.10097599
6	0xbd9143a0	-0.070929766
7	0x3c9d0fb4	0.019172527
8	0xbdc491f1	-0.095981486
9	0x3e2c786c	0.16842812
10	0xbe3b6bda	-0.18302861
11	0xbdc3366f	-0.09531867
12	0xbde43a68	-0.111439526
13	0xbd931cdf	-0.07183241
14	0xbdaa7989	-0.08323962
15	0xbe16d379	-0.14729108
16	0x3dddd45a	0.108315185
17	0x3e3562ae	0.17713425
18	0xbdbfde4e	-0.09368573
19	0xbe3ffce7	-0.18748818
20	0xbdca8914	-0.09889427
21	0x3e52cae3	0.20585208
22	0xbe78b6ec	-0.24288529
23	0x3e337812	0.17526272
24	0xbde6efe2	-0.11276223
25	0xbd1b89c0	-0.037973166
26	0xbd8fb73d	-0.07017372
27	0xbce3c02f	-0.027801601
28	0xbd79c97e	-0.060983174
29	0xbdfe2e25	-0.12411145
30	0xbdc0040b	-0.09375771
31	0x3e140611	0.14455439
32	0xbc85f825	-0.016353676
33	0x3d8ff499	0.07029075
34	0xbe27653b	-0.1634721
35	0x3e48582d	0.19564886
36	0xbe0e206d	-0.13879557
37	0xbe5abcbc	-0.21361059
38	0x3e27bf89	0.16381659
39	0xbe616340	-0.22010517
40	0xbdcfce2d	-0.10146747
41	0x3db669d7	0.08906906
42	0xbc91d740	-0.017802835
43	0xbe08a6f2	-0.13344935
44	0x3c39a22b	0.011330168
45	0xbe21f89d	-0.15817495
46	0xbe04c74c	-0.1296665
47	0x3e08ecc6	0.13371572
48	0x3b66e179	0.0035229607
49	0xbd68b9ed	-0.056817938
50	0xbe1d3650	-0.1535275
51	0xbc1cc555	-0.009568532
52	0xbdc230d1	-0.09481967
53	0x3df515c6	0.119670436
54	0xbdcff2cf	-0.10153734
55	0xbe12170c	-0.14266604
56	0x3ca806fb	0.020511141
57	0xbb723ed7	-0.0036963725
58	0xbd1fae2f	-0.038984474
59	0xbdf8c330	-0.12146604
60	0xbe07bce2	-0.13255647
61	0x3d35d015	0.044387896
62	0x3e213f01	0.1574669
63	0xbe24e285	-0.16102035
64	0xbe2546f2	-0.16140345
65	0xbc46dc85	-0.012137537
66	0xbe60d3bd	-0.21955772
67	0xbd9d01c6	-0.07666354
68	0xbe322925	-0.17398508
69	0xbd8e74e9	-0.069558926
70	0xbe071b3f	-0.13193987
71	0xbde7bc8b	-0.113152586
72	0xbd457a67	-0.048212435
73	0xbd51d29e	-0.05122625
74	0xbdef2fdb	-0.116790496
75	0xbdbba1b7	-0.09161704
76	0xbe63a695	-0.22231515
77	0xbe04f1c5	-0.12982853
78	0x3d457710	0.04820925
79	0x3e1df369	0.15424885
80	0x3e872a34	0.26399386
81	0xbd829353	-0.06375756
82	0xbe3a73c0	-0.18208218
83	0xbd0aab89	-0.033854995
84	0x3d753c6c	0.059872076
85	0xbe0821f2	-0.13294199
86	0xbe037e97	-0.12841259
87	0xbd846139	-0.06463856
88	0xbde26441	-0.11054278
89	0x3db55c16	0.088554546
